…
Namespace(audio_type='mic', batch_size=32, chunklen=200, cuda=True, feature_dir='/media/audiodsp/ExternalVolume/Weekly_Reports/Week_18/two-stage/features/', feature_type='logmelgcc', fold=1, fs=32000, hdf5='32000fs_1024nfft_320hs_96melb', hopframes=50, hopsize=320, loss_type='MAE', lr=0.001, mel_bins=96, mode='train', model='pretrained_CRNN10', model_interp_ratio=16, model_pool_size=(2, 2), model_pool_type='avg', nfft=1024, seed=10, task_type='doa_only', weight_decay=0, workspace='/media/audiodsp/ExternalVolume/Weekly_Reports/Week_18/two-stage/')

===> Building model

Utilize GPUs for computation

Number of GPU available: 1

Model architectures:
DataParallel(
  (module): pretrained_CRNN10(
    (conv_block1): ConvBlock(
      (conv1): Conv2d(10, 16, kernel_size=(3, 3), stride=(1, 1), padding=(1, 1), bias=False)
      (conv2): Conv2d(16, 16, kernel_size=(3, 3), stride=(1, 1), padding=(1, 1), bias=False)
      (bn1): BatchNorm2d(16, eps=1e-05, momentum=0.1, affine=True, track_running_stats=True)
      (bn2): BatchNorm2d(16, eps=1e-05, momentum=0.1, affine=True, track_running_stats=True)
    )
    (conv_block2): ConvBlock(
      (conv1): Conv2d(16, 32, kernel_size=(3, 3), stride=(1, 1), padding=(1, 1), bias=False)
      (conv2): Conv2d(32, 32, kernel_size=(3, 3), stride=(1, 1), padding=(1, 1), bias=False)
      (bn1): BatchNorm2d(32, eps=1e-05, momentum=0.1, affine=True, track_running_stats=True)
      (bn2): BatchNorm2d(32, eps=1e-05, momentum=0.1, affine=True, track_running_stats=True)
    )
    (conv_block3): ConvBlock(
      (conv1): Conv2d(32, 64, kernel_size=(3, 3), stride=(1, 1), padding=(1, 1), bias=False)
      (conv2): Conv2d(64, 64, kernel_size=(3, 3), stride=(1, 1), padding=(1, 1), bias=False)
      (bn1): BatchNorm2d(64, eps=1e-05, momentum=0.1, affine=True, track_running_stats=True)
      (bn2): BatchNorm2d(64, eps=1e-05, momentum=0.1, affine=True, track_running_stats=True)
    )
    (conv_block4): ConvBlock(
      (conv1): Conv2d(64, 128, kernel_size=(3, 3), stride=(1, 1), padding=(1, 1), bias=False)
      (conv2): Conv2d(128, 128, kernel_size=(3, 3), stride=(1, 1), padding=(1, 1), bias=False)
      (bn1): BatchNorm2d(128, eps=1e-05, momentum=0.1, affine=True, track_running_stats=True)
      (bn2): BatchNorm2d(128, eps=1e-05, momentum=0.1, affine=True, track_running_stats=True)
    )
    (conv_block5): ConvBlock(
      (conv1): Conv2d(128, 256, kernel_size=(3, 3), stride=(1, 1), padding=(1, 1), bias=False)
      (conv2): Conv2d(256, 256, kernel_size=(3, 3), stride=(1, 1), padding=(1, 1), bias=False)
      (bn1): BatchNorm2d(256, eps=1e-05, momentum=0.1, affine=True, track_running_stats=True)
      (bn2): BatchNorm2d(256, eps=1e-05, momentum=0.1, affine=True, track_running_stats=True)
    )
    (conv_block6): ConvBlock_1CNN(
      (conv1): Conv2d(256, 512, kernel_size=(3, 3), stride=(1, 1), padding=(1, 1), bias=False)
      (bn1): BatchNorm2d(512, eps=1e-05, momentum=0.1, affine=True, track_running_stats=True)
    )
    (gru): GRU(512, 256, num_layers=2, batch_first=True, bidirectional=True)
    (event_fc): Linear(in_features=512, out_features=11, bias=True)
    (azimuth_fc): Linear(in_features=512, out_features=11, bias=True)
    (elevation_fc): Linear(in_features=512, out_features=11, bias=True)
  )
)


Parameters and size:
module.conv_block1.conv1.weight: [16, 10, 3, 3]
module.conv_block1.conv2.weight: [16, 16, 3, 3]
module.conv_block1.bn1.weight: [16]
module.conv_block1.bn1.bias: [16]
module.conv_block1.bn2.weight: [16]
module.conv_block1.bn2.bias: [16]
module.conv_block2.conv1.weight: [32, 16, 3, 3]
module.conv_block2.conv2.weight: [32, 32, 3, 3]
…
